ml/best_ranking_model.pth (torch, 12150 bytes, 5 tensors)

fc1.weight f4 [64, 3]
0.62840337 0.54337704 -0.51002854 -0.59523904 -0.6669831 0.7415396 0.4247889 -0.34911138
0.094922796 0.22852324 -0.32338315 0.62452245 0.4682887 0.20224218 -0.78711706 0.69521487
0.82520974 -0.062356856 -0.5136062 0.8646906 -0.4550559 0.75650054 0.58147144 -0.78579825
-0.05368042 0.2051996 -0.0052021146 -0.59934634 0.20889078 0.2696618 0.7278947 -0.7915364
0.6787124 -0.14828698 -0.4909814 -0.057063624 -0.32219413 0.8711144 -0.40815932 -0.4443278
-0.08420013 0.797425 -0.6317036 -0.8066268 0.41887817 -0.7249279 0.6250392 0.7238922
0.40665153 0.574171 -0.7867146 0.65723604 -0.07796142 0.18838836 0.72981167 -0.5391205
-0.60557616 0.7048431 -0.0967547 -0.015346871 0.26788503 0.18947756 0.06335521 0.22159237
0.34375095 0.12447268 0.7617476 -0.7319261 0.866197 -0.7954608 0.52934426 0.5007283
-0.7529928 0.7427235 -0.7568272 -0.61552566 -0.78684545 0.29817197 0.14739694 0.80939
-0.7544195 0.30127093 -0.7964677 0.41122416 0.53690034 -0.8336675 0.8025975 -0.53848445
0.27445328 0.4866464 -0.26968598 0.8648872 -0.4670792 0.098311305 -0.1405868 0.043399513
-0.33354837 -0.29740348 0.7049484 0.44970196 -0.5357548 -0.8005779 0.5667197 -0.58636945
-0.79813117 -0.44639617 -0.3787856 -0.43197012 0.43874052 0.50978464 -0.5983803 -0.2855504
0.11587107 0.26716167 -0.7661948 0.8620788 0.49853572 -0.34081325 -0.62925303 0.6851242
-0.38969406 0.65329593 -0.79470617 0.85228217 -0.14863646 -0.877225 -0.39399058 -0.6777138
0.8387279 -0.6985264 -0.23826292 0.7374158 0.4096148 -0.41485342 -0.61492175 -0.006348813
-0.76424414 0.23724514 -0.7831275 -0.4818653 0.76014066 0.0047279 0.08773333 0.032203436
-0.27020308 0.84018755 0.6319986 -0.66153497 -0.65344346 0.6051639 -0.4996362 0.27529925
0.29985407 0.8869321 0.57640785 -0.37316403 -0.517516 0.8926687 -0.6073333 -0.14039245
0.44359732 0.23589292 -0.6237188 0.8208791 -0.4185593 -0.4629967 0.5677921 -0.77752525
-0.2597254 -0.011894703 -0.06659651 0.47116092 0.42593136 -0.7151255 0.5252447 -0.65349925
-0.51078427 -0.4370757 -0.30654505 0.6006495 -0.39212167 -0.00049571646 0.8357878 -0.57998353
0.68496656 -0.15499337 0.64171016 -0.6123764 0.23636049 -0.79085404 0.7176395 -0.5237956
00000000: 0bdf 203f c21a 0b3f 3b91 02bf 9661 18bf
00000010: 68bf 2abf 8ad5 3d3f ee7d d93e babe b2be
00000020: e266 c23d ff01 6a3e 7a92 a5be b4e0 1f3f
00000030: 89c3 ef3e 9318 4f3e 8180 49bf 9af9 313f
00000040: f240 533f e769 7fbd b27b 03bf 5d5c 5d3f
00000050: 16fd e8be 05aa 413f 50db 143f 132a 49bf
00000060: 00e0 5bbd d81f 523e 8076 aabb c36e 19bf
00000070: 77e7 553e 1d11 8a3e 4f57 3a3f 21a2 4abf
00000080: 19c0 2d3f 8bd8 17be ea61 fbbe 8cbb 69bd
00000090: a1f6 a4be 5a01 5f3f 42fa d0be ef7e e3be
000000a0: 1e71 acbd 0b24 4c3f 54b7 21bf 187f 4ebf
000000b0: 3377 d63e e094 39bf 9202 203f 0051 393f
000000c0: a134 d03e dffc 123f 2166 49bf 9f40 283f
000000d0: 3daa 9fbd e1e8 403e f0d4 3a3f cd03 0abf
000000e0: 0a07 1bbf 9970 343f 5427 c6bd 7171 7bbc
000000f0: 3a28 893e 6806 423e 60c0 813d 1ce9 623e
00000100: 2000 b03e 88eb fe3d e401 433f 825f 3bbf
00000110: 16bf 5d3f 52a3 4bbf 1b83 073f bb2f 003f
00000120: 23c4 40bf 2123 3e3f 6dbf 41bf 1793 1dbf
00000130: b46e 49bf ffa9 983e 39ef 163e 2f34 4f3f
00000140: a321 41bf 2f40 9a3e 4fe5 4bbf f98b d23e
00000150: 4d72 093f 3c6b 55bf 0877 4d3f 1eda 09bf
00000160: 2485 8c3e b829 f93e 4814 8abe 3f69 5d3f
00000170: 0125 efbe 7057 c93d fcf5 0fbe b0c3 313d
00000180: dac6 aabe 4545 98be 8077 343f 563f e63e
00000190: 3a27 09bf acf2 4cbf 8b14 113f 4f1c 16bf
000001a0: 5352 4cbf 0a8e e4be 30f0 c1be 302b ddbe
000001b0: 99a2 e03e 3f81 023f 742f 19bf a933 92be
000001c0: d04d ed3d 6ac9 883e 5825 44bf 32b1 5c3f
000001d0: 1340 ff3e 137f aebe ba16 21bf 4d64 2f3f
000001e0: fb85 c7be 673e 273f dd71 4bbf 2a2f 5a3f
000001f0: 2834 18be d191 60bf 22b9 c9be a77e 2dbf
00000200: dfb6 563f a0d2 32bf 32fb 73be 48c7 3c3f
00000210: 08b9 d13e ab67 d4be 836b 1dbf b409 d0bb
00000220: 81a5 43bf 64f0 723e 0b7b 48bf 0cb7 f6be
00000230: 9498 423f 80ec 9a3b 88ad b33d c0e7 033d
00000240: 0f58 8abe 8816 573f a9ca 213f 5b5a 29bf
00000250: 1248 27bf 05ec 1a3f 51d0 ffbe 06f4 8c3e
00000260: 7986 993e fb0d 633f 778f 133f 5b0f bfbe
00000270: ee7b 04bf f085 643f 327a 1bbf 0ac3 0fbe
00000280: 301f e33e ea8d 713e 09ac 1fbf 2225 523f
00000290: 684d d6be e70d edbe d35a 113f e50b 47bf
000002a0: bafa 84be 00e2 42bc c063 88bd 013c f13e
000002b0: ad13 da3e 7712 37bf 7076 063f ba4b 27bf
000002c0: c2c2 02bf 63c8 dfbe 79f3 9cbe 2ac4 193f
000002d0: 2cc4 c8be f8f2 01ba 30f6 553f cd79 14bf
000002e0: f859 2f3f 95b6 1ebe 1e47 243f b3c4 1cbf
000002f0: 7c08 723e 6975 4abf 39b7 373f 7817 06bf

fc1.bias f4 [64]
0.14300244 0.29918534 0.5025711 0.85183394 0.7209773 0.4067455 -0.265169 -0.13712811
-0.5256907 0.34956342 0.17659901 0.65344113 0.5038799 -0.007463686 -0.22298652 0.5119828
0.49619135 0.85588044 0.5565243 0.10298672 -0.45270675 -0.3455974 0.3090521 0.49491867
0.6687382 0.3538226 0.8294676 0.69804716 0.7937828 0.40540847 0.2512023 -0.49769622
0.42708772 0.17342639 -0.2506983 -0.47164768 0.25041604 -0.54747707 0.66488296 0.37078464
0.088444345 -0.067036815 -0.07367489 0.100722834 -0.044818625 0.67358744 0.32115427 -0.2706657
0.55422956 0.4250412 0.25945118 0.8427809 -0.1950162 -0.5446961 0.43853694 -0.07368162
-0.5266265 0.23105621 -0.046589114 0.23343617 0.14596324 -0.25468725 0.43691188 -0.04814799
00000000: 3b6f 123e d22e 993e 80a8 003f ca11 5a3f
00000010: f891 383f f240 d03e 3bc4 87be 506b 0cbe
00000020: aa93 06bf faf9 b23e 5fd6 343e eb47 273f
00000030: 46fe 003f f091 f4bb 9456 64be 4e11 033f
00000040: cb0c fe3e fb1a 5b3f 6078 0e3f b4ea d23d
00000050: 2ec9 e7be 24f2 b0be 143c 9e3e fb65 fd3e
00000060: 6d32 2b3f 3c28 b53e fd57 543f 38b3 323f
00000070: 5935 4b3f b391 cf3e 969d 803e 0ad2 febe
00000080: 3eab da3e b096 313e 875b 80be ce7b f1be
00000090: 8836 803e 7527 0cbf c535 2a3f 7cd7 bd3e
000000a0: 4f22 b53d 994a 89bd dce2 96bd c647 ce3d
000000b0: bc93 37bd 3a70 2c3f 556e a43e b294 8abe
000000c0: fde1 0d3f 009f d93e c9d6 843e 7dc0 573f
000000d0: 54b2 47be 3471 0bbf ea87 e03e 64e6 96bd
000000e0: ffd0 06bf 009a 6c3e 3ad4 3ebd e409 6f3e
000000f0: 6377 153e 5e66 82be eab2 df3e d436 45bd

fc2.weight f4 [32, 64]
0.41467535 0.40083796 0.394785 0.37548062 0.3337301 0.42006516 0.20366715 0.4208747
0.124001294 0.40028986 0.25557935 0.2290138 0.36779243 0.22836769 0.3417082 0.3589416
0.23347843 0.23606041 0.22641584 0.2086864 0.05165422 0.010532901 0.34014922 0.38657427
0.17884895 0.32581148 0.22682604 0.36616647 0.18329293 0.38547793 0.36610726 0.06590329
0.2543812 0.20233059 0.24507336 -0.11085671 0.36598137 0.0019030869 0.40973762 0.3722588
0.38233626 0.36772054 0.34466752 0.19232911 0.39439335 0.31831345 0.39483243 -0.07293774
0.31419754 0.3989358 0.28697735 0.3089852 0.27751717 -0.045460586 0.34336355 0.39147556
-0.06481202 0.32100388 0.22832432 0.3438588 0.42437062 0.46247706 0.31012523 0.2789272
-0.14748871 -0.10088153 0.041064795 -0.15318999 -0.13187481 -0.13404788 -0.07304777 0.07592191
-0.07565127 0.066098936 0.047201954 0.0454531 0.07280064 0.023898557 0.06851351 -0.010130059
0.035411827 0.027309198 0.0828576 -0.054429203 0.08024289 0.12389898 0.007933381 0.008947919
-0.11759859 0.10482152 0.04702614 -0.13479052 -0.054185797 -0.13420744 0.041282054 -0.07446721
0.123097226 -0.07211506 -0.0050596455 -0.1134904 -0.108222395 -0.09947087 0.07448621 -0.08822903
-0.02229598 -0.015146174 0.023577899 -0.017290562 -0.051671308 -0.08740554 0.07443121 0.03583531
0.08261705 -0.050014272 -0.06436134 0.05905323 0.04099165 0.031098416 -0.1553166 -0.08323931
0.07104042 -0.08753663 -0.075163215 -0.078006625 0.067017615 0.047321275 -0.0846764 0.049848855
-0.116792016 -0.11229102 -0.03134702 0.046999536 -0.012630937 -0.08647193 0.056715902 0.030804938
-0.09931703 -0.017073724 0.121094406 -0.14444922 -0.034686036 0.028774083 0.07844159 -0.055325624
-0.11428125 0.05416444 -0.055835232 -0.0861527 -0.004272595 -0.07656667 0.106848925 -0.0837413
0.07230471 -0.0049482137 -0.030734763 -0.062305763 -0.06435959 -0.052018058 0.039404538 0.00024993718
-0.07753649 -0.11021608 -0.035194844 0.029384598 0.09886624 -0.10297753 0.080884844 0.12395093
0.0034567383 0.05303973 0.028058097 0.12372282 -0.08698672 -0.031390935 -0.091165975 -0.002598837
0.082640305 -0.006765321 0.09770395 0.0386379 0.087810114 -0.07361156 -0.103283755 -0.028314456
0.0208008 -0.10600275 -0.01695007 -0.075250596 0.007595822 -0.012912711 -0.016129658 0.010374708
0.11203605 0.067678556 -0.10483563 0.04364124 -0.047946215 -0.009446949 0.115745366 0.036298454
0.095978975 0.061287224 -0.10115741 0.00821729 -0.12258878 0.10713549 -0.068257004 -0.12422784
0.10576549 0.05903034 -0.021924704 -0.03681855 0.01177761 0.034451365 -0.054670677 -0.027611792
0.022817984 -0.0045447648 -0.12180343 0.09257671 -0.103568286 0.08258617 0.011585772 -0.018130004
0.01696977 -0.04444985 0.026439264 -0.07331619 -0.02748096 0.098411545 0.030057326 -0.0633136
0.09874284 -0.0671542 0.07296094 0.020787194 -0.023223028 -0.09264484 0.06422268 0.11378002
-0.049787283 -0.03957136 -0.0778261 0.10046095 0.05807358 0.05224 -0.016927615 -0.12040052
-0.035492927 0.035973698 0.051079184 0.1050017 -0.016957387 -0.04959631 0.10170449 -0.0819747
00000000: 5450 d43e a23a cd3e 4221 ca3e ff3e c03e
00000010: acde aa3e c812 d73e 1f8e 503e e47c d73e
00000020: 64f4 fd3d cbf2 cc3e 4cdb 823e 9882 6a3e
00000030: 4a4f bc3e 38d9 693e 61f4 ae3e 32c7 b73e
00000040: f814 6f3e d2b9 713e 8ed9 673e e3b1 553e
00000050: 6093 533d 3092 2c3c 0a28 ae3e 10ed c53e
00000060: 2e24 373e c3d0 a63e 1645 683e 2c7a bb3e
00000070: 24b1 3b3e 5d5d c53e 6972 bb3e 4ef8 863d
00000080: 413e 823e c02f 4f3e 83f4 7a3e d808 e3bd
00000090: e961 bb3e 0071 f93a 21c9 d13e b598 be3e
000000a0: 94c1 c33e de45 bc3e 4378 b03e ecf1 443e
000000b0: eded c93e fbf9 a23e 7a27 ca3e 6260 95bd
000000c0: 80de a03e 5041 cc3e b2ee 923e 4f33 9e3e
000000d0: bb16 8e3e e134 3abd 59cd af3e 7c6f c83e
000000e0: 2abc 84bd 9f5a a43e dacd 693e 430e b03e
000000f0: 1b47 d93e cbc9 ec3e bcc8 9e3e 8ccf 8e3e
00000100: 4807 17be fa9a cebd 8f33 283d d6dd 1cbe
00000110: 310a 07be d943 09be 129a 95bd f27c 9b3d
00000120: 0eef 9abd e15e 873d d656 413d 082d 3a3d
00000130: 8018 953d e8c6 c33c d050 8c3d 8cf8 25bc
00000140: fe0b 113d 8ab7 df3c 3fb1 a93d 28f1 5ebd
00000150: 6256 a43d c0be fd3d 03fb 013c 4b9a 123c
00000160: 88d7 f0bd aaac d63d 7b9e 403d 8706 0abe
00000170: edf1 5dbd ad6d 09be 5f17 293d 4482 98bd
00000180: 661a fc3d 10b1 93bd 62cb a5bb a86d e8bd
00000190: b4a3 ddbd 62b7 cbbd 3a8c 983d 6cb1 b4bd
000001a0: 0fa6 b6bc a827 78bc 7026 c13c f0a4 8dbc
000001b0: 4ba5 53bd ad01 b3bd 646f 983d 0cc8 123d
000001c0: 2133 a93d c4db 4cbd e1cf 83bd cde1 713d
000001d0: dce6 273d 1bc2 fe3c 510b 1fbe 5f79 aabd
000001e0: a47d 913d 6846 b3bd 2cef 99bd f0c1 9fbd
000001f0: 8840 893d f4d3 413d d26a adbd 502e 4c3d
00000200: a730 efbd d6f8 e5bd bc65 00bd 9682 403d
00000210: fdf1 4ebc 3218 b1bd ef4e 683d a35a fc3c
00000220: ba66 cbbd 32de 8bbc 5800 f83d 7fea 13be
00000230: f212 0ebd a0b7 eb3c fca5 a03d 1f9d 62bd
00000240: 4a0c eabd 88db 5d3d 7cb3 64bd d470 b0bd
00000250: 2001 8cbb fcce 9cbd 9cd3 da3d 8f80 abbd
00000260: 7e14 943d a024 a2bb 78c7 fbbc 5434 7fbd
00000270: f6ce 83bd e310 55bd a766 213d 000a 8339
00000280: 74cb 9ebd f8b8 e1bd 7828 10bd f8b7 f03c
00000290: 627a ca3d e2e5 d2bd f4a6 a53d fcd9 fd3d
000002a0: 728a 623b 3040 593d 18da e53c 6462 fd3d
000002b0: 1826 b2bd c893 00bd 3ab5 babd 4051 2abb
000002c0: 523f a93d a0af ddbb 0219 c83d c642 1e3d
000002d0: cad5 b33d a8c1 96bd 6f86 d3bd b8f3 e7bc
000002e0: 7066 aa3c f817 d9bd e0da 8abc fc1c 9abd
000002f0: 60e6 f83b d68f 53bc 5822 84bc aefa 293c
00000300: 2873 e53d 0e9b 8a3d 10b4 d6bd 28c1 323d
00000310: 4063 44bd 60c7 1abc e80b ed3d b0ad 143d
00000320: a090 c43d 5008 7b3d 9e2b cfbd d0a1 063c
00000330: d40f fbbd da69 db3d 54ca 8bbd 2a6b febd
00000340: 949b d83d ccc9 713d 709b b3bc 0ccf 16bd
00000350: e0f6 403c e01c 0d3d 5cee 5fbd 2032 e2bc
00000360: c8ec ba3c 40ec 94bb 1474 f9bd dc98 bd3d
00000370: 9c1b d4bd f022 a93d 40d2 3d3c 6085 94bc
00000380: 3004 8b3c 0c11 36bd 2897 d83c cc26 96bd
00000390: c01f e1bc fe8b c93d c83a f63c 90aa 81bd
000003a0: b039 ca3d 2488 89bd 8c6c 953d e849 aa3c
000003b0: 383e bebc 94bc bdbd 2e87 833d 8005 e93d
000003c0: c0ed 4bbd 9415 22bd 4a63 9fbd 78be cd3d
000003d0: 90de 6d3d 9cf9 553d c8ab 8abc 8c94 f6bd
000003e0: 0861 11bd 2859 133d 6838 513d 220b d73d
000003f0: 38ea 8abc 8025 4bbd 724a d03d 5ae2 a7bd

fc2.bias f4 [32]
0.18885443 0.0540772 -0.13353518 -0.09796251 0.20990488 -0.100095235 0.2993898 0.20921952
0.24122432 -0.05661469 0.3566688 0.35753375 0.3114903 -0.117911234 0.23876253 0.21784823
0.02548508 0.22168112 0.34610048 0.33998927 0.012827605 0.07676464 0.07252703 0.098959684
0.27857596 0.35059398 -0.11817094 -0.06880795 0.30886975 -0.15324625 0.07885247 0.25575066
00000000: 0e63 413e 0e80 5d3d 72bd 08be 92a0 c8bd
00000010: 4ef1 563e bbfe ccbd 9f49 993e a43d 563e
00000020: 8203 773e cee4 67bd 4b9d b63e aa0e b73e
00000030: a87b 9f3e 727b f1bd 2a7e 743e 9b13 5f3e
00000040: 16c6 d03c 6000 633e 1534 b13e 1313 ae3e
00000050: e02a 523c c836 9d3d 0d89 943d 60ab ca3d
00000060: 82a1 8e3e 0e81 b33e 9b03 f2bd 2feb 8cbd
00000070: 2d24 9e3e 96ec 1cbe 677d a13d c0f1 823e

fc3.weight f4 [1, 32]
0.37297228 -0.005792166 -0.06560954 -0.038242146 0.48249605 -0.0074832644 0.3275954 0.39924172
0.4079098 -0.13097362 0.4772045 0.4177885 0.42922628 -0.10673586 0.47852707 0.43678412
-0.09634524 0.37566417 0.32746693 0.42664933 0.12929474 -0.07043299 -0.084380016 -0.07178123
0.36112314 0.4914309 -0.072215274 -0.082162835 0.4079039 -0.07195898 -0.07540481 0.41448343
00000000: 39f6 be3e 36cc bdbb 4b5e 86bd cca3 1cbd
00000010: b909 f73e 2c36 f5bb 96ba a73e 6969 cc3e
00000020: 8ed9 d03e f31d 06be 2654 f43e 60e8 d53e
00000030: 8cc3 db3e 5598 dabd 8001 f53e 2ba2 df3e
00000040: a750 c5bd 0e57 c03e bfa9 a73e c871 da3e
00000050: d765 043e 2c3f 90bd 6ecf acbd 0a02 93bd
00000060: 22e5 b83e d59c fb3e 9ae5 93bd fd44 a8bd
00000070: c8d8 d03e 3b5f 93bd d66d 9abd 2c37 d43e
