ml/ranking_model.pth (torch, 3392 bytes, 3 tensors)

fc1.weight f4 [64, 3]
0.1865536 0.005837336 -0.042803917 0.47308776 -0.2078081 0.5791783 -0.13188085 -0.5757475
-0.5585454 0.37896276 0.60469204 0.17330272 0.52141726 0.28521067 0.6797882 -0.13940725
-0.38352954 -0.3494674 0.13516477 0.66511637 0.4234093 0.4425738 0.73419625 -0.4470476
-0.08210232 -0.27577722 0.60831124 0.29807368 -0.5363376 0.4886518 0.35292983 0.090432644
-0.27276707 -0.2778058 -0.23351872 0.1623807 0.54059345 0.5152967 -0.22175622 0.0442549
-0.013851643 -0.048378706 0.017380783 0.40279394 0.72068393 -0.3620329 0.24038231 -0.27224585
0.22520716 0.39158025 -0.30635414 0.2799249 -0.053542055 0.48334068 0.20937672 0.12688458
0.4084833 0.1665976 0.1966642 0.4063287 -0.48325586 0.29861 0.30989197 0.50079346
0.47156522 0.7941521 -0.070785515 0.568826 0.18611008 0.5008568 -0.2460126 0.5998274
-0.04725062 -0.06029163 0.052181218 0.7327603 0.057277493 0.55942005 -0.25488 0.30123183
0.5998171 0.662808 0.073574275 -0.48285034 0.3585963 -0.28308794 -0.103163116 0.42110807
0.10879947 0.15334752 -0.37745467 0.3607285 -0.29580587 -0.2153571 0.34418917 -0.29356477
0.07790131 0.020113805 0.26501206 0.7128347 -0.41923106 0.19712238 0.6867765 -0.47795707
0.8107513 -0.13034315 -0.33338928 0.08225237 -0.19366941 0.32060915 -0.55719787 -0.43469697
-0.08021614 -0.10586485 0.29897207 -0.12974432 -0.5292639 0.372643 -0.0068086754 0.37972122
0.6345558 -0.45434827 0.7536912 0.36957037 0.01895657 -0.27556115 0.4488908 -0.34011716
0.08929491 -0.3251656 -0.24151772 -0.44522274 0.24087864 0.20721278 -0.56335247 -0.53274244
0.14106871 0.35226312 -0.25905484 0.4833165 0.41490495 0.2954852 -0.10468009 0.35294986
-0.4525523 0.22238421 0.46892133 0.26527715 0.802162 0.78256106 0.41489094 0.52467966
-0.32883316 0.31852332 0.40845636 0.040095914 0.4637948 -0.31474417 -0.25362125 0.17071879
-0.40521592 -0.40614623 -0.46230298 -0.55873996 -0.1732133 -0.051312447 0.22479713 0.19955498
0.4277736 -0.44127774 -0.14196041 0.20924896 -0.41996825 -0.4281147 0.3882021 -0.21050051
-0.0126447845 0.065571606 0.28469646 -0.32306442 0.5170717 0.26743114 -0.1206013 -0.41820008
-0.3089388 -0.072167695 0.4850061 -0.52904683 0.42670548 -0.3311652 -0.23379147 0.57229346
00000000: e807 3f3e 2047 bf3b 2953 2fbd 8f38 f23e
00000010: a6cb 54be 0745 143f c60b 07be 3064 13bf
00000020: d5fc 0ebf 6807 c23e 19cd 1a3f 4576 313e
00000030: 9a7b 053f 2207 923e 9906 2e3f c6c0 0ebe
00000040: fc5d c4be 64ed b2be a268 0a3e 1145 2a3f
00000050: 1bc9 d83e 0899 e23e 49f4 3b3f 6ce3 e4be
00000060: 4325 a8bd ac32 8dbe 49ba 1b3f 1d9d 983e
00000070: 6c4d 09bf 9230 fa3e 38b3 b43e c034 b93d
00000080: 20a8 8bbe 903c 8ebe 881f 6fbe 2047 263e
00000090: 5564 0a3f 7cea 033f 1014 63be a044 353d
000000a0: 00f2 62bc c028 46bd 2562 8e3c 023b ce3e
000000b0: be7e 383f 605c b9be c826 763e cf63 8bbe
000000c0: b59c 663e 357d c83e 73da 9cbe 5152 8f3e
000000d0: ea4e 5bbd 6e78 f73e da66 563e 08ee 013e
000000e0: b924 d13e 9098 2a3e 5762 493e 510a d03e
000000f0: 506d f7be 69e3 983e 29aa 9e3e 0034 003f
00000100: ff70 f13e 8d4d 4b3f fff7 90bd 959e 113f
00000110: a493 3e3e 2738 003f baea 7bbe 4a8e 193f
00000120: de89 41bd 5bf4 76bd f9bb 553d 2e96 3b3f
00000130: ce9b 6a3d 2736 0f3f a27f 82be 0f3b 9a3e
00000140: 9d8d 193f c9ad 293f 1cae 963d 2938 f7be
00000150: ef99 b73e e7f0 90be 2f47 d3bd 7a9b d73e
00000160: 42d2 de3d 2207 1d3e bd41 c1be 68b1 b83e
00000170: de73 97be 9286 5cbe 9039 b03e 1f4e 96be
00000180: b98a 9f3d b5c5 a43c a9af 873e 567c 363f
00000190: 74a5 d6be 73da 493e 96d0 2f3f cab6 f4be
000001a0: 668d 4f3f ad78 05be 00b2 aabe ee73 a83d
000001b0: 4651 46be e226 a43e 85a4 0ebf 9a90 debe
000001c0: 5c48 a4bd accf d8bd de12 993e b2db 04be
000001d0: d77d 07bf 10cb be3e 4f1b dfbb d26a c23e
000001e0: 4072 223f 56a0 e8be e8f1 403f 5438 bd3e
000001f0: cf4a 9b3c 5a16 8dbe 04d5 e53e d623 aebe
00000200: 40e0 b63d 1b7c a6be 6c50 77be 3cf4 e3be
00000210: e4a8 763e 962f 543e de37 10bf cf61 08bf
00000220: 5174 103e d55b b43e d6a2 84be 4375 f73e
00000230: 6c6e d43e d649 973e 8462 d6bd d8b5 b43e
00000240: efb4 e7be b0b8 633e 7516 f03e 68d2 873e
00000250: 7d5a 4d3f ec55 483f 966c d43e 6851 063f
00000260: d25c a8be 7d15 a33e 3121 d13e 9d3b 243d
00000270: 8376 ed3e 2626 a1be a5da 81be e8d0 2e3e
00000280: 7678 cfbe 66f2 cfbe fab2 ecbe 9509 0fbf
00000290: d45e 31be 002d 52bd 3831 663e 2458 4c3e
000002a0: 2405 db3e 28ef e1be 125e 11be 5c45 563e
000002b0: 1406 d7be da31 dbbe 6dc2 c63e 728d 57be
000002c0: 122c 4fbc 684a 863d bcc3 913e b368 a5be
000002d0: d05e 043f bcec 883e d0fd f6bd 521e d6be
000002e0: 3a2d 9ebe a8cc 93bd b852 f83e 9d6f 07bf
000002f0: 2479 da3e 7c8e a9be 0867 6fbe d381 123f

fc1.bias f4 [64]
0.70626265 0.19669971 -0.3152491 0.7665197 0.44509864 -0.5287722 0.052782495 0.2871541
0.77805173 0.21565653 -0.51581776 -0.43718228 0.10656773 -0.40473193 0.508378 -0.5374771
0.28017187 0.4165007 0.46497968 0.35619095 0.4601446 0.8004494 0.65259516 0.047715906
0.46895975 0.42686838 0.37193066 0.43779662 0.5416699 0.09481191 -0.49694085 -0.3488254
0.6415247 0.3426435 -0.19128682 0.500815 -0.5261107 0.060898244 0.37989196 0.6933114
0.046241157 0.59804726 -0.5382396 0.22164473 0.0118460795 0.55763674 0.81711537 -0.44559413
0.6060513 0.39288908 -0.54519975 0.56564695 0.11892191 -0.39305955 -0.44072735 -0.32952142
-0.5684492 -0.28627712 0.81096673 -0.28808075 0.1203446 -0.24248648 -0.52657974 0.18447942
00000000: a1cd 343f a66b 493e 5468 a1be a33a 443f
00000010: f8e3 e33e 9d5d 07bf 7532 583d dd05 933e
00000020: 662e 473f 11d5 5c3e a20c 04bf 5bd6 dfbe
00000030: 2f40 da3d 0639 cfbe 1025 023f 1998 09bf
00000040: b072 8f3e 943f d53e d111 ee3e a95e b63e
00000050: 1398 eb3e 40ea 4c3f 7a10 273f c171 433d
00000060: 7e1b f03e 7e8e da3e b26d be3e e126 e03e
00000070: e1aa 0a3f bf2c c23d 086f febe 3e99 b2be
00000080: f63a 243f f86e af3e b1e0 43be 6935 003f
00000090: 31af 06bf 7070 793d 3381 c23e db7c 313f
000000a0: 5e67 3d3d a019 193f 12ca 09bf d6f6 623e
000000b0: 0f16 423c 48c1 0e3f 792e 513f ea24 e4be
000000c0: 2e26 1b3f c228 c93e 3692 0bbf 3dce 103f
000000d0: 558d f33d 1a3f c9be 04a7 e1be 08b7 a8be
000000e0: e385 11bf ea92 92be 849b 4f3f 527f 93be
000000f0: 3b77 f63d 604e 78be eecd 06bf 2ce8 3c3e

fc2.weight f4 [1, 64]
0.30202413 0.34836966 -0.066960454 0.26237205 0.26847774 0.014958322 0.3247322 0.17471986
0.28546685 0.13626109 0.0076746047 -0.074869126 0.26821595 0.041717008 0.3152517 0.08132471
0.14924523 0.088263385 0.32892326 0.15510099 0.3001367 0.27551198 0.31445828 0.30460915
0.19735333 0.21332173 0.10721755 0.2493434 0.07811707 0.1441277 0.042259708 0.12068334
0.33133516 0.16547394 0.37234938 0.21051803 0.044349864 0.034869075 0.15615408 0.22555494
0.2666721 0.3475441 -0.10000904 -0.056712784 0.054523304 0.2549551 0.34824345 -0.123550415
0.27214506 0.29580206 -0.094304755 0.34263828 0.36494997 -0.018417329 -0.0180621 -0.02010265
0.12077929 -0.08768503 0.26540282 0.07190195 0.083110996 -0.07897371 0.08935629 0.36006197
00000000: e8a2 9a3e 825d b23e 9022 89bd a155 863e
00000010: ea75 893e c013 753c 4d43 a63e c3e9 323e
00000020: b628 923e 0788 0b3e 407b fb3b fc54 99bd
00000030: 9a53 893e 74df 2a3d ac68 a13e 928d a63d
00000040: bed3 183e 6fc3 b43d a168 a83e cbd2 1e3e
00000050: 84ab 993e e80f 8d3e ad00 a13e bbf5 9b3e
00000060: fe16 4a3e 0371 5a3e e094 db3d e053 7f3e
00000070: d8fb 9f3d 3696 133e 8418 2d3d d428 f73d
00000080: c3a4 a93e 0072 293e 94a4 be3e 0a92 573e
00000090: 34a8 353d e0d2 0e3d dbe6 1f3e e0f7 663e
000000a0: 3f89 883e 4df1 b13e 8ad1 ccbd aa4b 68bd
000000b0: d453 5f3d 7a89 823e f74c b23e 0008 fdbd
000000c0: 9956 8b3e 5e73 973e da22 c1bd 496e af3e
000000d0: b9da ba3e f0df 96bc f8f6 93bc 50ae a4bc
000000e0: 225b f73d 3694 b3bd e1e2 873e 5441 933d
000000f0: 1936 aa3d f8bc a1bd 6e00 b73d 0b5a b83e
